Tensorflow Lite/tf_model.tflite (tflite, 408144 bytes, 4 tensors)

dense/MatMul_bias f4 [128]
0	0x3d8c92c5	0.068639316
1	0xbe5a4040	-0.21313572
2	0x3eaddd59	0.33957937
3	0x3ea9d2ef	0.33168742
4	0x3ea4d7ef	0.32195994
5	0x3e0e721c	0.13910717
6	0x3c47669c	0.01217046
7	0x3e9727ce	0.29522556
8	0x3e7429b5	0.23844035
9	0xbc61718e	-0.013759984
10	0x3ec2f855	0.38080087
11	0xbb028285	-0.0019914221
12	0x3e9767a0	0.29571247
13	0x3df0e96f	0.11763274
14	0x3eda7465	0.42666927
15	0x3f17ceae	0.59299743
16	0xbde44da0	-0.11147618
17	0x3cecedba	0.02892195
18	0xbc7fefaf	-0.01562111
19	0xbc61b3b4	-0.013775755
20	0xbdd56ed7	-0.10421532
21	0xbd15f4f8	-0.036610574
22	0xbdd9ea26	-0.106403634
23	0x3e246e89	0.16057791
24	0xbc55b6c7	-0.013044066
25	0x3e347167	0.17621385
26	0x3ee9b59d	0.45646372
27	0x3e9e7184	0.3094598
28	0x3eab1b49	0.33419254
29	0x3e436e98	0.19085157
30	0xbe3415c8	-0.17586434
31	0xbdb1c729	-0.08680565
32	0xbebbe167	-0.36695406
33	0x3cea0890	0.028568536
34	0xbcfde292	-0.030991826
35	0xbc9273a3	-0.017877406
36	0x3f176854	0.5914357
37	0xbc8cc98c	-0.017185949
38	0x3ed32129	0.41236237
39	0x3bda8630	0.0066688284
40	0xbe89a466	-0.2688324
41	0xbeab7b41	-0.33492473
42	0xbc68f752	-0.014219122
43	0x3e6de836	0.23233113
44	0x3dc7bae4	0.097524434
45	0xbe25ac0f	-0.16178916
46	0x3e64a850	0.22329831
47	0x3eb8d4b6	0.36099786
48	0xbca79e1f	-0.02046114
49	0x3dd5adac	0.10433516
50	0x3e07a5d4	0.13246852
51	0xbdbedb7a	-0.093192056
52	0xbeaf4ed4	-0.3423983
53	0x3eb46736	0.35234994
54	0xbd059beb	-0.032619398
55	0x3ecc7205	0.3993074
56	0x3e694f3f	0.22784136
57	0x3dcfdd6e	0.10149656
58	0x3b313853	0.0027041628
59	0x3ea6fee6	0.32616347
60	0x3e6624c0	0.22474957
61	0xbc55b1d7	-0.013042889
62	0xbca4e372	-0.020127986
63	0x3e92e982	0.28693777
64	0x3d5ab36a	0.05339376
65	0xbd65dee9	-0.056120787
66	0xbe086828	-0.13320982
67	0x3e67a662	0.22622064
68	0x3eb0bb68	0.3451798
69	0x3e87b262	0.26503283
70	0xbed805d0	-0.42191935
71	0x3e5efe98	0.21776807
72	0xbbcc5c46	-0.006236586
73	0xbcc56914	-0.024097957
74	0x3ef6eb3b	0.48226342
75	0x3d7cc446	0.06171062
76	0xbd36c5b2	-0.04462213
77	0x3e6e6437	0.23280416
78	0x3ea1c23c	0.31593502
79	0x3db1c8e1	0.08680893
80	0x3e48a5fa	0.19594565
81	0x3e579603	0.21053319
82	0x3f20e8cd	0.62855226
83	0x3eaed5a0	0.34147358
84	0xbcc91940	-0.024548173
85	0x3ec29e99	0.38011625
86	0x3e2b91d5	0.1675485
87	0xbd2c0ee9	-0.042006407
88	0xbe520326	-0.20509014
89	0x3ed44ec8	0.41466355
90	0x3eb70642	0.35746962
91	0xbe6dee7c	-0.23235506
92	0xbeadec35	-0.33969274
93	0xbea12bc8	-0.31478715
94	0x3e451682	0.19246867
95	0x3ea1bedd	0.3159093
96	0x3e8e64ff	0.2781143
97	0x3eb19fda	0.3469227
98	0x3ed40eb9	0.41417482
99	0x3e6e6bcd	0.2328331
100	0x3edb0f88	0.42785287
101	0x3e47ee11	0.19524409
102	0x3d8bbbff	0.06822967
103	0x3e90e001	0.282959
104	0xbe0d6d5b	-0.13811247
105	0x3df00821	0.117203005
106	0xbbe132b3	-0.006872499
107	0x3eca71f5	0.39540067
108	0x3ec970c7	0.39343855
109	0x3e9f2ade	0.31087393
110	0x3e990f43	0.29894456
111	0x3e536d35	0.20647128
112	0x3e3cb6ca	0.18429103
113	0x3ea85b56	0.32882184
114	0x3f03d007	0.514893
115	0x3dea5f23	0.11443927
116	0xbe4d35c4	-0.20040041
117	0xbe13e25a	-0.14441815
118	0x3e835366	0.25649565
119	0xbe0f2a5e	-0.13981006
120	0x3cd424ae	0.025896396
121	0x3dd497cd	0.10380516
122	0xbce5c665	-0.028048703
123	0x3eab1db1	0.3342109
124	0xbcb1eef3	-0.021720385
125	0x3dc5eb84	0.09664062
126	0x3bdfcdbc	0.0068299454
127	0x3ece1f34	0.4025818

dense/kernel/transpose f4 [128, 784]
0	0xbe017c0d	-0.12644978
1	0xbdbf1d76	-0.09331791
2	0xbe2f4f69	-0.17120136
3	0x3d625e78	0.055265874
4	0xbda382b8	-0.07983917
5	0xbd7cca8c	-0.0617166
6	0xbd1066e1	-0.035254363
7	0x3d19fb23	0.03759302
8	0xbda2e160	-0.07953143
9	0xbc622e70	-0.013805017
10	0x3e117b9c	0.1420731
11	0x3d580060	0.052734733
12	0xbe75c13e	-0.23999497
13	0xbe8bfc77	-0.27341053
14	0xbe2151fe	-0.15753934
15	0xbe94045e	-0.28909582
16	0xbe0717db	-0.13192694
17	0x3d2ece9f	0.042677518
18	0xbe0cb4b8	-0.13740814
19	0x3b345498	0.0027516242
20	0xbe56defa	-0.20983496
21	0xbe937b02	-0.28804785
22	0xbe845745	-0.2584783
23	0xbd37b99c	-0.044854745
24	0xbd5bf10d	-0.05369668
25	0x3d3204ce	0.043461613
26	0x3a9a067b	0.0011751199
27	0x3c7ca45d	0.015420047
28	0xbdafc250	-0.08581984
29	0xbe081e5a	-0.13292828
30	0xbd5055ca	-0.050863065
31	0xbd3d719e	-0.046250932
32	0xbdb57f68	-0.088621914
33	0xbcff6917	-0.03117804
34	0xbd6148f7	-0.055001225
35	0x3d9291f6	0.07156746
36	0x3de95a7e	0.11394213
37	0x3ded2d0d	0.115808584
38	0x3e0eb298	0.13935316
39	0xbc73aae6	-0.014872288
40	0x3db48fc0	0.08816481
41	0x3d00d7c5	0.031455774
42	0x3d3c4e19	0.045972917
43	0xbd41c448	-0.04730633
44	0xbd9726fc	-0.073804826
45	0x3d2a0a3e	0.041513674
46	0x3e2de5a7	0.16982137
47	0x3e52e65c	0.20595688
48	0x3df14d45	0.11782316
49	0xbd9f7feb	-0.0778807
50	0xbdcbe2d3	-0.09955373
51	0x3d758efa	0.059950806
52	0x3cd021dd	0.025406772
53	0x3de37a4f	0.11107313
54	0x3ddae14f	0.106875055
55	0xbe2e9822	-0.17050222
56	0x3d41cf7b	0.04731701
57	0x3d1ce9a2	0.038308747
58	0xbded317c	-0.11581704
59	0xbdeedec5	-0.11663584
60	0xbe61bee7	-0.2204548
61	0xbde7fd18	-0.11327571
62	0x3d971a8b	0.073781095
63	0x3ebf117f	0.37318036
64	0x3e04dc50	0.12974668
65	0x3dbc002d	0.09179721
66	0x3b993f79	0.004676756
67	0x3c28e605	0.010308747
68	0x3ca89f68	0.020583823
69	0x3d4045bc	0.046941504
70	0xbe01ad04	-0.12663656
71	0xbe18a5dc	-0.1490702
72	0xbc866ada	-0.016408373
73	0xbdd511d8	-0.10403794
74	0xbc3266a8	-0.010888733
75	0x3deef63e	0.11668061
76	0x3e897a05	0.26850906
77	0x3e1b9c55	0.15196355
78	0xbd006c39	-0.03135321
79	0xbd8f2df7	-0.06991189
80	0xbdde8c82	-0.108666435
81	0x3dce1b29	0.10063774
82	0x3e1d263a	0.15346614
83	0x3d89cfa8	0.067290604
84	0x3e0b3186	0.1359311
85	0x3db48908	0.08815199
86	0x3d0ad0d7	0.03389057
87	0xbd23ee26	-0.040022038
88	0xbd26f991	-0.04076535
89	0x3df85538	0.12125629
90	0x3e99be7b	0.30028138
91	0x3e08c0b6	0.13354763
92	0xbbe218ec	-0.0068999436
93	0x3c993214	0.018700637
94	0xbc9391cd	-0.01801386
95	0xbbe77468	-0.0070634373
96	0x3c15a9a1	0.009134681
97	0xbd99f3e9	-0.07517225
98	0x3badb6f8	0.0053013526
99	0xbdca584b	-0.09880122
100	0xbe1511e7	-0.1455761
101	0xbda955ae	-0.08268295
102	0xbd986bf0	-0.074424624
103	0xbd6f5051	-0.058426205
104	0x3d2c3630	0.042043865
105	0x3e56a80d	0.20962544
106	0x3dbc8b4b	0.092062555
107	0x3c5a6e61	0.01333198
108	0xbc77e766	-0.015130853
109	0x3dfe63cf	0.12421381
110	0x3e4c5606	0.1995469
111	0x3de6bb58	0.11266202
112	0x3d3f875b	0.046759944
113	0x3bbe1099	0.0058003184
114	0xbd7ab056	-0.061203323
115	0x3bb7e4c5	0.0056119883
116	0x3cd4c036	0.02597056
117	0x3e4cbf07	0.19994746
118	0x3dd0873b	0.10182043
119	0x3dc24e87	0.09487634
120	0xbc4efca8	-0.01263348
121	0x3d5979fa	0.05309484
122	0xbcbcb60a	-0.023036022
123	0xbd5cfa40	-0.053949594
124	0xbddfebc8	-0.109336436
125	0xbccc5462	-0.02494258
126	0xbdac2247	-0.084049754
127	0xbe01a696	-0.12661204
128	0xbe0cc6ff	-0.13747786
129	0x3c930715	0.017947713
130	0x3dbca544	0.092112094
131	0x3d7a2898	0.06107387
132	0xbbee673b	-0.0072754896
133	0x3d639381	0.055560593
134	0x3a4575d0	0.0007532509
135	0x3e645f5e	0.22302005
136	0x3d799b56	0.060939156
137	0x3d871802	0.06596376
138	0x3e8e367d	0.27775946
139	0x3dc20a20	0.094745874
140	0x3dabb6d8	0.08384484
141	0x3d201492	0.039082117
142	0x3c895fc7	0.016769303
143	0xbcc725af	-0.024309961
144	0x3d70c007	0.05877688
145	0xbcbd748c	-0.023126863
146	0x3e20b329	0.15693344
147	0x3d933652	0.07188095
148	0x3dd17619	0.102276035
149	0x3d178ced	0.03699963
150	0xbd9ed4c7	-0.07755428
151	0x3d071453	0.032978367
152	0x3c9d7659	0.019221472
153	0xbd8183a7	-0.06323939
154	0xbcd90e52	-0.026496086
155	0xbc4a4233	-0.012344885
156	0xbc687f8b	-0.014190565
157	0x3a096bc6	0.0005242195
158	0xbc8a9a01	-0.016919138
159	0x3d4f232e	0.05057066
160	0xbd0af909	-0.033928905
161	0x3dfe36a7	0.12412768
162	0x3ccf3a2f	0.025296299
163	0x3e553b2f	0.20823358
164	0x3e00c41d	0.12574811
165	0x3e0f76eb	0.14010207
166	0x3ea49dc8	0.32151628
167	0x3e85571b	0.2604302
168	0x3cc5b091	0.024132045
169	0xbdad23a2	-0.08454062
170	0xbd979080	-0.07400608
171	0xbdc07191	-0.09396661
172	0x3c8ee995	0.017445365
173	0x3e08a382	0.13343623
174	0x3d7716ae	0.060324363
175	0x3d7f71d2	0.062364407
176	0x3d722bbf	0.05912375
177	0xbad35fb7	-0.0016126548
178	0xbc54c569	-0.012986519
179	0xbd898cf7	-0.0671634
180	0xbd18d690	-0.037313998
181	0xbd89533e	-0.0670533
182	0x3b87f6e1	0.0041493033
183	0x3d457de2	0.048215754
184	0x3d5235c6	0.051320814
185	0x3b878dd7	0.0041367817
186	0x3c6f0cc1	0.014590443
187	0xbb957ad9	-0.0045617637
188	0x3d1abace	0.037775807
189	0x3d8e8965	0.069598
190	0x3e0ae4b1	0.13563801
191	0x3d8f4e10	0.06997311
192	0x3c22d727	0.009938992
193	0x3e211065	0.1572891
194	0x3e5eeebb	0.21770756
195	0x3ec851dc	0.39124954
196	0x3e60c17c	0.21948808
197	0xbe03f9a4	-0.12888199
198	0xbdfbcc5f	-0.1229484
199	0xbd8674dd	-0.06565259
200	0x3d09938c	0.033587977
201	0x3cae37d0	0.021266848
202	0x3db79bd7	0.08965271
203	0x3d8e4e85	0.0694857
204	0x3d54e70d	0.05197816
205	0xbd4e90a0	-0.050430894
206	0x3c072dfd	0.008250711
207	0x3d9851b7	0.07437461
208	0x3cac9b4d	0.021070147
209	0x3d005e84	0.031340137
210	0x3d94227c	0.0723314
211	0xbd2c210d	-0.042023707
212	0x3d0586b0	0.03259915
213	0x3ad5f97c	0.0016324962
214	0xbc411f51	-0.011787252
215	0x3d2af8d4	0.041741207
216	0xbd066658	-0.032812446
217	0x3d771ab7	0.06032821
218	0x3c42e0e2	0.011894437
219	0x3e084e59	0.13311137
220	0x3da57148	0.08078247
221	0x3dc943cb	0.098273836
222	0x3e1b3822	0.15158132
223	0x3ebbe3db	0.36697277
224	0x3e4057e3	0.18783526
225	0xbdd6a75e	-0.104811415
226	0xbcd0ce0e	-0.02548888
227	0xbd7862b5	-0.06064101
228	0xbe261b4c	-0.1622135
229	0xbd06fc31	-0.032955352
230	0x3d302dae	0.043012314
231	0x3d671b74	0.056422666
232	0x3d2bf966	0.04198589
233	0x3d8e87a7	0.069594674
234	0x3e12c7db	0.14334051
235	0x3ddd1e53	0.107967995
236	0x3de1ee04	0.11031726
237	0x3d244bc8	0.040111333
238	0xbbde3459	-0.0067811427
239	0xbd5b31ec	-0.053514406
240	0x3ca3029a	0.019898701
241	0x3de00968	0.10939294
242	0x3e3089e4	0.17240101
243	0xbc5fab25	-0.013651644
244	0x3c61f2be	0.013790784
245	0x3da60cac	0.08107886
246	0xbbf210b4	-0.007387245
247	0x3d935dd1	0.071956284
248	0x3de92afe	0.11385153
249	0x3e1bd131	0.15216519
250	0x3e9744fd	0.2954482
251	0x3eab1a9d	0.33418742
252	0x3ea5b967	0.32368013
253	0xbc709eec	-0.014686327
254	0xbd292c30	-0.041301906
255	0xbe0b9ff8	-0.13635242

dense_1/MatMul_bias f4 [10]
0	0x3d121d5b	0.035672527
1	0xbea815db	-0.32829174
2	0x3dfdaa20	0.123859644
3	0x3e828d74	0.25498545
4	0xbe9d55d3	-0.3072954
5	0x3e070d93	0.13188772
6	0x3e19321a	0.14960518
7	0x3e6c6c10	0.23088098
8	0xbe305a05	-0.1722184
9	0xbef091fe	-0.46986383

dense_1/kernel/transpose f4 [10, 128]
0	0xbdfbf4ab	-0.12302526
1	0x3dc0b86d	0.094101764
2	0x3e2b7f00	0.16747665
3	0xbe23966d	-0.15975352
4	0xbdbb86e7	-0.0915659
5	0x3e750f7a	0.23931685
6	0x3e45315a	0.19257107
7	0xbe827462	-0.25479418
8	0xbdf7a466	-0.120919034
9	0xbdf596ec	-0.11991677
10	0x3ca54142	0.020172719
11	0xbd49ab9e	-0.049235933
12	0x3d24d761	0.040244464
13	0x3e17cd08	0.14824307
14	0x3c9ebf20	0.019378245
15	0xbf62ed09	-0.88642937
16	0xbe04ea6c	-0.1298005
17	0x3e1d88ab	0.15384166
18	0xbbb2b56a	-0.005453755
19	0x3e21b2b3	0.15790825
20	0x3e2edfe6	0.17077598
21	0xbde44383	-0.11145689
22	0xbea93fb2	-0.33056408
23	0xbdeccc75	-0.115624346
24	0x3e329382	0.17439082
25	0x3e00e219	0.1258625
26	0x3e7c93a5	0.24665697
27	0xbd95fe63	-0.07323911
28	0x3b81a7e5	0.003956782
29	0xbdb2f662	-0.087384
30	0xbe22f861	-0.15915062
31	0xbdf2dd55	-0.11858622
32	0x3e26d519	0.16292228
33	0x3d691f6b	0.056914728
34	0x3de03a5d	0.10948632
35	0x3e3102f0	0.17286277
36	0xbeaef3ed	-0.34170476
37	0xbe5b2d09	-0.21403898
38	0x3dd02733	0.10163727
39	0x3db75b84	0.08953002
40	0x3e166717	0.14687763
41	0xbdb12c13	-0.086509846
42	0xbcc998e2	-0.024609033
43	0xbd2fa9d7	-0.04288658
44	0xbd5dc747	-0.054145124
45	0xbcace82b	-0.0211068
46	0xbef288d3	-0.47370014
47	0xbefa622d	-0.48903027
48	0xbdf30a12	-0.11867155
49	0xbd757e94	-0.059935167
50	0x3dd97bd0	0.106193185
51	0xbe029656	-0.12752661
52	0xbdd7b8ab	-0.105332695
53	0x3d3751d6	0.04475578
54	0x3dc38112	0.095461026
55	0xbeb8fd66	-0.36130828
56	0x3dd96912	0.10615744
57	0xbe0f8781	-0.14016534
58	0xbe9cfd75	-0.30662122
59	0x3e6fe31d	0.2342648
60	0x3e2f08f5	0.1709326
61	0x3dc7bd26	0.09752874
62	0x3d6f3a86	0.05840542
63	0xbcaf466f	-0.02139589
64	0xbcae9eb1	-0.021315904
65	0x3d7b099c	0.06128846
66	0x3cc937e2	0.02456278
67	0x3dfd28af	0.123612754
68	0x3e3115eb	0.17293517
69	0x3e01af62	0.1266456
70	0x3ca46ce6	0.020071458
71	0xbd16e5ed	-0.036840368
72	0xbc54ea26	-0.012995278
73	0xbe489c36	-0.1959084
74	0x3d081684	0.033224598
75	0x3e156408	0.1458894
76	0x3e2dc842	0.16970924
77	0x3d883d76	0.06652348
78	0x3e3a7e8d	0.18212338
79	0xbc07c179	-0.008285874
80	0xbea2e181	-0.3181267
81	0x3d4c5032	0.049881168
82	0x3e4ec9a8	0.20194113
83	0xbe81930a	-0.25307494
84	0xbc229ea8	-0.009925522
85	0x3e5127a8	0.20425284
86	0xbe0517b9	-0.1299733
87	0xbea26d0e	-0.31723827
88	0xbe454d1d	-0.19267698
89	0x3cf117e2	0.029430334
90	0x3dc51f6b	0.09625133
91	0xbdc8af28	-0.097990334
92	0xbe3dfc29	-0.18553223
93	0x3bced91f	0.006312504
94	0x3e0ced42	0.13762382
95	0xbead6c65	-0.3387176
96	0x3cb8f4f7	0.022577746
97	0x3e15b2c1	0.1461897
98	0xbea8eae4	-0.32991707
99	0xbde2bf09	-0.11071593
100	0x3e551910	0.20810342
101	0xbe4f1fc4	-0.20226961
102	0xbc4e7abc	-0.012602504
103	0x3db5fc9b	0.08886071
104	0xbbf2d9c3	-0.007411213
105	0xbd7c7b02	-0.061640747
106	0x3d3c53a5	0.045978207
107	0x3dd49623	0.10380199
108	0x3e5f7af0	0.2182424
109	0x3cd179dc	0.025570802
110	0xbdff0457	-0.12452
111	0xbe822fa1	-0.25426963
112	0xbe3cebf1	-0.1844938
113	0xbe0dc8a7	-0.13846074
114	0x3ceac1d4	0.028656878
115	0x3d08648e	0.03329902
116	0xbe99e51c	-0.3005761
117	0x3baadb65	0.005214142
118	0x3e38bebb	0.18041508
119	0x3de6b7df	0.112655394
120	0xbc731b47	-0.014838046
121	0x3dfb5be0	0.12273383
122	0xbcc584d6	-0.024111193
123	0xbe43d69a	-0.19124833
124	0xbe552c72	-0.20817736
125	0xbe06eb46	-0.13175687
126	0xbe294064	-0.1652847
127	0x3d58103b	0.052749854
128	0xbea5b08c	-0.32361257
129	0x3e89940f	0.26870772
130	0x3e5f41e2	0.21802476
131	0xbee12bed	-0.43978825
132	0xbe924085	-0.2856485
133	0x3d93f518	0.07224482
134	0x3e16d14a	0.14728275
135	0x3e289ceb	0.1646611
136	0x3e6b8367	0.22999345
137	0x3db8c9c1	0.090228565
138	0xbe60f10f	-0.21966957
139	0xbe5b02cb	-0.21387784
140	0xbe2068e7	-0.15665017
141	0xbe33a2b4	-0.17542535
142	0xbf06ac7e	-0.5260695
143	0xbee70678	-0.45122123
144	0x3e778218	0.2417072
145	0xbe8fec72	-0.2811008
146	0xbe0e4e93	-0.13897161
147	0x3e1cf546	0.1532794
148	0xbeca2805	-0.39483657
149	0xbdae84d7	-0.08521431
150	0x3e65a73e	0.22427079
151	0xbdf9623a	-0.12176938
152	0xbdf57a61	-0.119862325
153	0xbe063972	-0.13107851
154	0xbe5ba674	-0.21450216
155	0xbf02c27b	-0.51078004
156	0x3e0afdfc	0.1357345
157	0xbe9d84cd	-0.3076538
158	0x3eb0987d	0.3449134
159	0x3e25b6d7	0.16183029
160	0xbda5153a	-0.08060689
161	0xbd5638aa	-0.052300133
162	0xbd79bbed	-0.060970236
163	0xbd870c0c	-0.06594095
164	0xbe704e61	-0.23467399
165	0xbe49376e	-0.19650051
166	0xbeb7cad4	-0.35896933
167	0xbe2c0485	-0.16798599
168	0xbe9a0ac1	-0.3008633
169	0xbea8d829	-0.32977417
170	0x3e2a6707	0.16640864
171	0xbecb5a1d	-0.39717188
172	0x3ef94fc2	0.48693663
173	0x3e8af5c3	0.27140626
174	0xbe3d12a4	-0.18464142
175	0xbef39943	-0.47577867
176	0xbe4b5a96	-0.19858775
177	0xbda040e7	-0.07824879
178	0xbe5be46b	-0.21473853
179	0x3c650fbf	0.013980805
180	0xbdcbbc1b	-0.09947988
181	0xbe7ffe69	-0.24999394
182	0xbde34e2e	-0.11098896
183	0x3e897808	0.2684939
184	0xbd8066c0	-0.06269598
185	0xbe4ddc81	-0.20103647
186	0xbd9b304c	-0.07577571
187	0xbc79b6e8	-0.015241362
188	0x3e1bf6b1	0.15230824
189	0xbd969f3d	-0.07354591
190	0x3defcce1	0.117089994
191	0xbe275aae	-0.16343185
192	0x3c6c1a78	0.0144106075
193	0xbe3b3c48	-0.18284714
194	0x3de5b34f	0.11215841
195	0xbea9edc8	-0.33189225
196	0x3e78fefc	0.24316019
197	0xbd1ea8f3	-0.03873534
198	0x3e69656a	0.22792593
199	0x3e6fb2b9	0.23408021
200	0xbd5fd049	-0.054641996
201	0xbe599e83	-0.21251874
202	0xbecd82ad	-0.4013876
203	0x3ea31d74	0.31858408
204	0xbdffbca6	-0.12487154
205	0xbe043f4b	-0.1291477
206	0xbda2e85a	-0.07954474
207	0xbe54f99b	-0.20798342
208	0xbf2c73e7	-0.6736435
209	0x3e495119	0.19659843
210	0xbf1751f2	-0.59109414
211	0xbe9685a5	-0.29398838
212	0xbe1efeb5	-0.1552685
213	0xbe567c9e	-0.20945975
214	0x3ce4932c	0.027902208
215	0x3efaaff3	0.48962364
216	0x3efd361d	0.49455348
217	0xbf49da54	-0.7884877
218	0xbd636bda	-0.055522777
219	0xbdb68783	-0.089125656
220	0x3db864aa	0.09003575
221	0xbf08e306	-0.5347141
222	0xbea70265	-0.32619014
223	0xbeb8f7bc	-0.36126506
224	0xbf2ee2c4	-0.68314767
225	0xbee9c604	-0.45658886
226	0xbeebd44e	-0.46060413
227	0xbebc96c6	-0.3683378
228	0xbcc1d98b	-0.023663303
229	0xbecd1291	-0.40053228
230	0xbe7e6732	-0.24844053
231	0xbec8e9c3	-0.39240846
232	0x3d092c9f	0.03348982
233	0xbdca1d31	-0.09868849
234	0xbe552049	-0.20813097
235	0x3e666fee	0.22503635
236	0x3d441b1d	0.04787742
237	0xbe85910a	-0.2608722
238	0x3daaebcf	0.08345758
239	0x3e154800	0.14578247
240	0xbebf16c6	-0.37322062
241	0x3e5ed841	0.21762182
242	0xbf0616f9	-0.52378803
243	0xbcd1b6fa	-0.025599945
244	0xbea0b052	-0.31384522
245	0xbe532c41	-0.2062235
246	0x3d8d6131	0.069033034
247	0x3d7437e3	0.05962361
248	0x3e5de57c	0.21669573
249	0xbd37ab72	-0.044841237
250	0xbd38d9d2	-0.045129605
251	0x3e6adc74	0.22935659
252	0x3e2bdc45	0.16783245
253	0xbe0d1bb4	-0.13780099
254	0xbe87a966	-0.26496428
255	0x3da21f93	0.079161786
